output/ch8/w_linear.pt (torch, 3053 bytes, 1 tensors)

weight f4 [1, 300]
00000000: 4fcb bbbf f2f0 6fbf 9454 54be 0f31 8c3f
00000010: bcda 3240 dcb5 0cc1 2769 c9bf 7e57 cd3f
00000020: c991 76c0 37f0 a7bd 4dc1 2ac0 33fe 6fc0
00000030: df40 74c0 481b dabf 56ea 753f 5d29 df3f
00000040: 0d2b 99c0 3075 3b40 d780 35c0 a9c2 9b40
00000050: fe9f 2f3f 3719 623e 8b08 0a40 a0f9 1cbf
00000060: 17fa 1ac0 415f 48c0 d28c 41c0 c962 bb3f
00000070: 0e3f bac0 3dec eebf b928 793f d34d a63f
00000080: 8a29 1a3f cfe0 7b40 d861 6840 4198 6bbf
00000090: 1f5c a3c0 1af7 4ec0 1f52 12c0 f0bb d23c
000000a0: ebbc 04bf d3f0 15bd eca2 45c0 4bbc 1c41
000000b0: ad87 5a40 636d 5f40 5f4d 5940 37aa 0fc0
000000c0: bf57 d540 4f15 c63e 6bd5 6d3f 4fd4 673f
000000d0: e15a 54bf 7c5a a13e 15c2 84bf ab72 cf40
000000e0: 56b0 dfbf cbd3 763f 4f7e 7ec0 0273 d9bf
000000f0: 4aae 07c0 fa76 7ac0 5733 acc0 ec54 2f40
00000100: 0212 99be 382f ec40 7856 16c0 1365 70c0
00000110: 770e 5040 728c 1d40 7add 9f3f 4148 90bf
00000120: 20df b140 feb0 fabe 4e3e 953f 7cb8 fcbf
00000130: 525f 933f bd17 9f40 5f42 08c0 b50c fe3f
00000140: fdc4 e4c0 4069 143f d35b af40 c92c 8040
00000150: da32 1440 3d22 b2be 8697 b7c0 a0fc e0be
00000160: 3949 d9c0 cf6d e13f 7c14 8b3f 59e9 9a40
00000170: ec93 ec3f c07b 1740 b26e 77c0 8fd3 f63f
00000180: 3aa7 c1c0 723d adbf 80a7 d23f 695c 22c1
00000190: 61d2 03c1 b620 3140 4df7 a5bf 8dec 54c0
000001a0: edd7 9cbe 3172 cac0 baee f93e 72dd 9fbe
000001b0: b0a0 19c0 b847 98bf 4289 40bd 83d0 9e40
000001c0: 8003 98c0 fd35 9840 45c5 55bf d34a 8a40
000001d0: 2214 a7c0 4526 19c0 a147 05c0 046b 3fc0
000001e0: 7f2e 5140 098c 8f40 4bad 133f 99bb e6bf
000001f0: bb07 3fbf 74c3 e940 784c db3e b9b1 9f40
00000200: 3736 83c0 b414 d140 984c 08bf f2c1 ac3f
00000210: fd47 a03e 6762 d4bf 42e7 a540 157d eebe
00000220: 21cc 0440 ad00 1b40 f831 d140 571f 1241
00000230: 5c4f 7cbe 0fbf 213f 1a72 86c0 4048 46c0
00000240: 3893 75c0 32ac f23f 8dd0 aa40 3052 1040
00000250: 7d50 233f a824 20bf 48e9 24c0 7aea f03e
00000260: 75c3 aebf c42c cebe f35a d43f a132 2bc0
00000270: 10f7 b840 7507 0e40 44f4 39bf 2dc5 7abf
00000280: 977b bc3f becc f3bf 2a0e 3940 1f6a 863f
00000290: 2993 f43e 5ca1 68c0 fada 8bbf bf95 163f
000002a0: 29e0 a7c0 b1e5 b340 2585 2dbf 98b1 a93f
000002b0: fede ef40 ba30 0cc0 4528 073e 2aec ea3e
000002c0: 177c c7c0 649f df40 9860 8cc0 9c07 89c0
000002d0: 0887 aec0 f0de 1ebf e790 c13f 954e 33c1
000002e0: 55ee adc0 8262 74c0 6bc4 44c0 07e1 75c0
000002f0: 3cb9 c6bf 017c a4c0 e5b0 0bc0 04a1 4441
00000300: 9c7b c540 f32b 3ec1 4320 93bf 1218 c3c0
00000310: a6b1 cebf 8f82 8440 aa06 333f 42a1 6dbf
00000320: 81c4 7f40 5b3d 413e 0e0d 8a40 edb0 8bc0
00000330: 92ab dabf 9345 84bf d040 2ec0 525a 91c0
00000340: 86c2 2d40 f275 6640 aeb6 21c0 44d4 b340
00000350: 1d3f b9c0 9cd2 6ebe fd7a babe c971 13c0
00000360: 4baa 16bf 8aa3 6b40 bdf9 82bf de7a 9a40
00000370: 4581 fc40 d00a 5b40 ecf0 5c3f ae82 a2c0
00000380: fbe2 56c0 13e9 7f40 373d 5ec0 1020 83c0
00000390: 3455 acbe 4b8d 3ec0 ae8d 25c0 7c83 fa3d
000003a0: 5039 16c0 f9b0 6c3f a8d7 0f40 77c3 923f
000003b0: bf37 f5c0 68a0 d03f d303 96bf 7fe7 36bf
000003c0: abc3 7ec0 69db 5cc0 1012 f4c0 dfa1 8f40
000003d0: ab49 95bf e363 be40 0382 81c0 0aa2 a9c0
000003e0: 6fed a240 1d8e 89c0 f51a 52c0 a95b ae40
000003f0: 45ae 963e fd1d 5e40 bee2 8e40 7a8d 773f
-1.467142 -0.9372703 -0.20735389 1.0952471 2.7946005 -8.794399 -1.5735215 1.6042325
-3.852648 -0.08200114 -2.6680481 -3.74989 -3.8164594 -1.7039576 0.96060693 1.7434498
-4.786505 2.9290276 -2.8359888 4.867512 0.68603504 0.22079931 2.1567714 -0.613184
-2.4215143 -3.1308138 -3.02422 1.4639522 -5.820197 -1.8665844 0.9732776 1.29925
0.60219634 3.9355962 3.630972 -0.92029196 -5.1049953 -3.233832 -2.2862623 0.025724381
-0.51850766 -0.03660662 -3.088069 9.79597 3.414531 3.4910514 3.3953474 -2.244764
6.666961 0.38688132 0.92903775 0.9055833 -0.8295117 0.31514347 -1.0371729 6.4827476
-1.7475688 0.9641692 -3.9764593 -1.6988223 -2.1200128 -3.9135118 -5.381267 2.7395582
-0.2989655 7.380764 -2.3490276 -3.756169 3.2508829 2.461697 1.2489464 -1.127205
5.558487 -0.4896316 1.1659639 -1.97438 1.1513464 4.9716477 -2.129051 1.9847628
-7.1490464 0.579731 5.479959 4.005467 2.3156037 -0.34791747 -5.7372465 -0.43942738
-6.7901883 1.7611636 1.0865626 4.840985 1.8482642 2.366928 -3.8661313 1.9283313
-6.0516634 -1.3534377 1.6457367 -10.147561 -8.238862 2.7676215 -1.2966095 -3.326938
-0.30633488 -6.3264394 0.48814946 -0.31223637 -2.4004326 -1.1896887 -0.0470059 4.962953
-4.7504272 4.7565904 -0.83504134 4.321634 -5.2212076 -2.3929608 -2.082497 -2.9909067
3.268463 4.485844 0.576863 -1.8026 -0.7462117 7.305109 0.4283178 4.9904447
-4.100368 6.533777 -0.5324187 1.3496687 0.31304923 -1.659253 5.1844797 -0.46579805
2.074959 2.4219162 6.5373497 9.132651 -0.24639648 0.6318216 -4.2014284 -3.0981598
-3.8371105 1.89588 5.337958 2.2550163 0.6379469 -0.62555933 -2.5767384 0.4705389
-1.3653399 -0.40268528 1.6590255 -2.6749651 5.780159 2.2192051 -0.72638345 -0.97957116
1.4725217 -1.9046857 2.8914895 1.0501136 0.47768524 -3.6348486 -1.0926201 0.58822244
-5.2461133 5.6217885 -0.6778129 1.3257322 7.4959707 -2.190474 0.13198955 0.45883304
-6.2338977 6.988207 -4.386791 -4.282179 -5.4539833 -0.62058926 1.5122346 -11.206685
-5.4353433 -3.8185124 -3.0744884 -3.8418596 -1.5525279 -5.140137 -2.1826718 12.28931
6.171339 -11.88573 -1.149422 -6.0966883 -1.6147964 4.1409373 0.69932044 -0.92824185
3.9963686 0.18871062 4.3140936 -4.3653474 -1.7083609 -1.0333732 -2.7227058 -4.5422754
2.7149978 3.6009488 -2.526775 5.6196613 -5.7889543 -0.23322529 -0.36421958 -2.30382
-0.58853596 3.6818566 -1.0232464 4.8274984 7.89078 3.422535 0.8630512 -5.078452
-3.3576038 3.9986007 -3.4724863 -4.097664 -0.33658755 -2.9773738 -2.5867724 0.1223211
-2.347248 0.9245754 2.2475376 1.1465901 -7.663055 1.6298952 -1.1719917 -0.71446985
-3.9806926 -3.4508917 -7.627205 4.4885097 -1.1663107 5.949693 -4.0471206 -5.30103
5.0914836 -4.298598 -3.2828953 5.448689 0.29429832 3.4705803 4.4651785 0.9670025
